models/torch_model_v1.0.pth (torch, 28822 bytes, 15 tensors)

Rrs_encoder.0.weight f4 [8, 1, 2]
0	0x3f3abbb0	0.7294264
1	0x3f33ed0a	0.7028357
2	0xbee79c57	-0.45236465
3	0xbd5b63cd	-0.053561974
4	0xbec6a0f1	-0.38794664
5	0x3e56ba11	0.20969416
6	0xbf368548	-0.7129712
7	0xbf76ff4b	-0.96483296
8	0x3f113af7	0.567306
9	0x3f00e88a	0.50354826
10	0xbf5c12c0	-0.8596611
11	0xbe66822a	-0.22510591
12	0xbd6dec5e	-0.058086745
13	0xbd2f1638	-0.0427458
14	0x3d81e51f	0.063425295
15	0xbe4147a5	-0.18874986

Rrs_encoder.0.bias f4 [8]
0	0x3f55f1d6	0.8357214
1	0x3e802da0	0.2503481
2	0x3f1dbe17	0.6161818
3	0xbeca9803	-0.395691
4	0x3f556549	0.83357674
5	0xbe844d5d	-0.25840273
6	0x3f4aac0e	0.79168785
7	0x3f92473d	1.142799

linear.0.weight f4 [32, 45]
0	0x3eb0f2fa	0.34560376
1	0x3e6ca7fd	0.23110957
2	0x3b7f727c	0.003897815
3	0x3e04ea84	0.12980086
4	0x3e26a5bb	0.16274159
5	0x3d53ae10	0.05167967
6	0x3e263c46	0.1623393
7	0x3e46dbfe	0.19419858
8	0x3f22b523	0.6355764
9	0x3c009b38	0.007849507
10	0x3e594e8f	0.21221374
11	0x3eecdd76	0.4626271
12	0x3edc383d	0.43011656
13	0x3f3e546b	0.7434756
14	0xbdbd5d80	-0.09246349
15	0xbd0c0f17	-0.03419408
16	0x3b37b3fc	0.0028030863
17	0xbcb95b52	-0.022626553
18	0xbcbd7ab3	-0.023129797
19	0xbe014bd9	-0.1262659
20	0x3ec1a03f	0.3781757
21	0x3f0212bf	0.50809854
22	0x3db4abb4	0.08821812
23	0x3e85c851	0.26129392
24	0x3ea0321e	0.31288236
25	0xbe6ccaf9	-0.23124303
26	0xbe4078d9	-0.187961
27	0x3e203277	0.15644251
28	0xbd9208e6	-0.071306035
29	0xbcaae083	-0.020859009
30	0x3eb1d45d	0.34732333
31	0x3f03838b	0.51372594
32	0x3ea48358	0.32131457
33	0x3ea18ee2	0.31554323
34	0x3ee3b034	0.4447037
35	0x3eb2595b	0.34833798
36	0x3ef2e816	0.47442693
37	0x3ec29eca	0.3801177
38	0x3e42253c	0.18959516
39	0x3ed2b9b2	0.411573
40	0x3cc6da8d	0.024274135
41	0xbe8d2644	-0.27568257
42	0x3efcb117	0.4935386
43	0x3d924ad5	0.07143179
44	0xbe2e4464	-0.17018276
45	0x3dad95b2	0.08475818
46	0xbebd78a1	-0.37006095
47	0xbe9e24a6	-0.30887336
48	0xbd876fde	-0.06613134
49	0x3e3e39ae	0.1857669
50	0x3e8509ee	0.25984138
51	0x3e300a10	0.17191339
52	0xbd1b7810	-0.037956297
53	0xbe54da52	-0.20786408
54	0x3f7d908c	0.99048686
55	0x3d6ae659	0.057348583
56	0xbdc2d692	-0.09513582
57	0xbd0d652d	-0.034520317
58	0xbe8e387e	-0.27777475
59	0x3f1781e8	0.59182596
60	0x3e832692	0.25615364
61	0x3d89c901	0.067277916
62	0xbd21c6d7	-0.03949627
63	0x3ecde36a	0.40212566
64	0x3f9e75c3	1.2379688
65	0xbf2c4676	-0.67295015
66	0xbf5470bf	-0.82984537
67	0xbe9d0ba2	-0.30672938
68	0xbdcee69e	-0.101025805
69	0x3d9a8af2	0.07546033
70	0x3eb081b7	0.34473965
71	0x3eeb35bb	0.4593943
72	0x3dae0d10	0.08498585
73	0xbe489a2e	-0.19590065
74	0x3f70d0a7	0.9406838
75	0xbe71e867	-0.2362381
76	0xbe9be5a7	-0.30448648
77	0xbdb27939	-0.08714528
78	0xbda60d1d	-0.0810797
79	0xbe0fca86	-0.140421
80	0xbcfadf97	-0.030624194
81	0x3c957b98	0.01824741
82	0xbe8527b3	-0.2600685
83	0xbdf256ec	-0.11832985
84	0xbe8ceec9	-0.2752593
85	0xbec4c452	-0.3843103
86	0x3f9698f7	1.1765431
87	0xbfcdf85f	-1.6091422
88	0xbe0b61c3	-0.13611512
89	0xbf02453a	-0.5088688
90	0xbc8e5f50	-0.017379433
91	0xbe1bc7a0	-0.1521287
92	0xbe8223ab	-0.25417838
93	0x3c029376	0.007969728
94	0xbe37ed25	-0.17961557
95	0x3dcbf88d	0.09959517
96	0xbe1476ef	-0.14498495
97	0x3d34dbad	0.04415481
98	0x3f16517a	0.58718073
99	0xbe4555e6	-0.19271049
100	0x3e9f75e7	0.3114464
101	0x3e4782e9	0.19483532
102	0x3d8c17e4	0.06840494
103	0x3f143be1	0.5790387
104	0x3c860261	0.016358556
105	0xbe49c9ff	-0.19705962
106	0xbd2af279	-0.041735146
107	0xbeab9b66	-0.33516997
108	0xbde18c3b	-0.11013075
109	0xbdcbfa32	-0.0995983
110	0x3ebc1dad	0.3674139
111	0x3ef7edf9	0.48423746
112	0xbd7803e7	-0.060550597
113	0x3e009386	0.12556276
114	0xbdd11114	-0.102083355
115	0xbe98a388	-0.29812264
116	0xbe16e733	-0.14736633
117	0xbe3d29b5	-0.18472941
118	0xbd9427e6	-0.072341725
119	0xbe131471	-0.14363267
120	0x3ed3fcd9	0.41403845
121	0x3ed2324d	0.41054
122	0x3efab8aa	0.48969012
123	0x3edeb264	0.43495476
124	0x3eb23085	0.34802642
125	0x3ef54c8d	0.47909966
126	0x3ec6dc03	0.3883973
127	0x3f0b7161	0.5446988
128	0x3ee6b74b	0.45061716
129	0x3ed59e76	0.4172246
130	0xbe63f73f	-0.22262286
131	0xbee5f806	-0.4491579
132	0x3f0e11a2	0.55495656
133	0x3e76e018	0.24108922
134	0xbd888c61	-0.066674
135	0x3c9e2ba9	0.019307928
136	0x3dec55ad	0.11539779
137	0x3bfe56e0	0.007761821
138	0x3d46c9f8	0.048532456
139	0x3d146929	0.0362331
140	0xbc75001d	-0.01495364
141	0x3be727b3	0.007054293
142	0x3ce48856	0.027897041
143	0xbdd716a6	-0.10502367
144	0xbd2233fc	-0.039600357
145	0xbdcee9e2	-0.10103203
146	0xbe1667c1	-0.14688016
147	0x3cc1dd52	0.023665104
148	0xbd987e5c	-0.07445976
149	0xbde0fcbc	-0.10985705
150	0xbd63e36d	-0.055636812
151	0x3d81a487	0.06330209
152	0x3bef9694	0.0073116515
153	0xbd653c47	-0.055965688
154	0xbe0dfa24	-0.13864952
155	0x3d9b16a6	0.07572679
156	0xbe10f710	-0.14156747
157	0xbe247db3	-0.16063575
158	0xbdb02532	-0.086008444
159	0x3d62d33e	0.055377237
160	0xbe2a567b	-0.16634552
161	0x3dd19a4c	0.10234508
162	0xbde0081b	-0.10939046
163	0xbe444af6	-0.1916922
164	0x3da92131	0.08258284
165	0xbe0d9fbd	-0.13830467
166	0xbe413137	-0.1886643
167	0xbcbf9e5f	-0.023390947
168	0x3d20ba02	0.03923989
169	0xbd231fc0	-0.0398252
170	0xbd81b2e9	-0.063329525
171	0xbdf58b74	-0.11989489
172	0x3d8010fa	0.06253238
173	0xbe26326d	-0.16230173
174	0x3da84750	0.08216727
175	0x3dc01641	0.093792446
176	0xbd4815d7	-0.048848953
177	0x3cd512cd	0.026009941
178	0x3cbad475	0.022806386
179	0x3df8575a	0.12126036
180	0x3e10816b	0.14111869
181	0x3e9c57c2	0.30535704
182	0x3d7f2b93	0.062297415
183	0x3e5c56f9	0.21517552
184	0x3dbb5ffa	0.091491655
185	0x3e51f2e0	0.20502806
186	0x3e95ab63	0.2923232
187	0x3e5f4278	0.218027
188	0x3eed57f1	0.46356156
189	0xbdf918df	-0.12162947
190	0x3e0b58e5	0.1360813
191	0x3eb24cbd	0.34824172
192	0x3ec9a6b9	0.39385012
193	0x3f0d1dd8	0.5512366
194	0xbd37df2e	-0.044890575
195	0xbe1af5a6	-0.1513277
196	0x3e7a2e6e	0.24431774
197	0xbd85b622	-0.0652888
198	0x3e355fef	0.17712377
199	0x3d52b4a3	0.0514418
200	0x3f0b12ee	0.5432576
201	0x3ee152d4	0.44008505
202	0x3e29a4f7	0.16566835
203	0x3e26676c	0.1625039
204	0x3dfcdc7e	0.12346743
205	0xbe72f0d4	-0.23724681
206	0x3d5e504b	0.054275792
207	0x3dfe3c7b	0.124138795
208	0x3e3f6b89	0.18693365
209	0xbd937f47	-0.072020106
210	0x3eac0fd7	0.33605835
211	0x3ef484cd	0.4775757
212	0x3ea7fd50	0.3281045
213	0x3f0b5d3a	0.5443913
214	0x3ec893d9	0.391753
215	0x3ea10177	0.3144643
216	0x3f0f9b54	0.56096387
217	0x3f0b64f9	0.5445095
218	0x3edfa6c4	0.4368192
219	0x3eb3c76c	0.35113084
220	0xbe0c2c88	-0.13688862
221	0xbeb8b3f7	-0.36074802
222	0x3e99ac47	0.3001425
223	0x3e91465f	0.28374
224	0xbeb09603	-0.3448945
225	0x3e04197e	0.1290035
226	0x3dbceb68	0.09224588
227	0xbbe9f5e8	-0.00713991
228	0x3e53c711	0.20681407
229	0x3cc71144	0.024300225
230	0x3d8208b2	0.06349315
231	0x3da35c9d	0.07976649
232	0x3e6a177e	0.22860524
233	0x3ebc86f6	0.36821717
234	0xbe73a740	-0.2379427
235	0x3ec7a208	0.38990808
236	0x3ecfa4f5	0.4055554
237	0x3e21976c	0.15780419
238	0x3f288de9	0.6584154
239	0xbdc8e381	-0.09809018
240	0x3ca84dad	0.020544851
241	0x3dcf90cc	0.1013504
242	0x3e14860f	0.14504264
243	0x3e179f4e	0.14806864
244	0xbe1a25f3	-0.15053539
245	0x3f0085ef	0.50204366
246	0x3e913090	0.28357363
247	0x3e3bd445	0.18342693
248	0x3eb10b97	0.34579155
249	0x3e45e96e	0.19327328
250	0xbe9b0c18	-0.30282664
251	0xbde731f5	-0.112888254
252	0x3e315cb7	0.17320524
253	0x3c3492e0	0.011021346
254	0xbe884cf5	-0.26621214
255	0x3e857651	0.2606683

linear.0.bias f4 [32]
0	0x3e83b5dc	0.25724685
1	0xbe622981	-0.22086145
2	0x3f0597f4	0.5218499
3	0xbe2c2081	-0.16809274
4	0x3e76183d	0.24032684
5	0x3eea053f	0.45707127
6	0x3ed026ba	0.40654546
7	0x3e719fd7	0.2359613
8	0x3e93f874	0.28900492
9	0xbd5149f3	-0.051095914
10	0xbc091b4b	-0.008368324
11	0x3eef86bc	0.46782482
12	0x3e7028fe	0.23453137
13	0xbdc0f056	-0.094208404
14	0x3cc359eb	0.023846587
15	0x3dc24cac	0.0948728
16	0x3eaa22c5	0.33229652
17	0x3ee532c0	0.44765282
18	0xbf0a4a64	-0.5401976
19	0x3eccfb63	0.40035543
20	0x3df37bf8	0.118888795
21	0x3ea6895a	0.32526666
22	0x3ef2e1fc	0.47438037
23	0x3ed35926	0.41278952
24	0x3ef0fd59	0.4706829
25	0x3ea5bd90	0.32371187
26	0x3e677e9a	0.22606888
27	0x3ec7a478	0.38992667
28	0xbdbdf9c7	-0.09276157
29	0x3e8d89f9	0.27644327
30	0x3eb80940	0.35944557
31	0x3ede8d8a	0.4346736

out.0.weight f4 [1, 32]
0	0x3ef98741	0.48736003
1	0xbff8fd58	-1.9452314
2	0x3ef00265	0.46876827
3	0xbdf7679c	-0.12080309
4	0x3edb929d	0.42885295
5	0x3f08a572	0.5337745
6	0x3ec0caba	0.37654668
7	0x3f053d04	0.5204623
8	0x3edc130b	0.4298328
9	0xbd4947dc	-0.049140796
10	0xbda3b100	-0.079927444
11	0x3ed5faab	0.41792807
12	0x3eda5d70	0.42649412
13	0xbd3d17bf	-0.046165224
14	0xbd5b66fa	-0.053565003
15	0xbd188458	-0.037235588
16	0x3ee8f9ee	0.4550318
17	0x3ee932eb	0.4554666
18	0xc00b7567	-2.1790407
19	0x3eee45e4	0.46537697
20	0xbfc798e4	-1.5593534
21	0x3f0130de	0.5046519
22	0x3ec0a9af	0.37629458
23	0x3f034774	0.51280904
24	0x3ede97c4	0.43475163
25	0x3ed104f1	0.40824082
26	0x3f02c90f	0.5108804
27	0x3ed4a491	0.41531804
28	0xbddbcfd3	-0.10732999
29	0x3f0d3332	0.5515624
30	0x3eb575be	0.35441393
31	0x3ef15926	0.47138327

exp_avg f4 [8, 1, 2]
0	0x3fadcacc	1.3577514
1	0x3f3b19e0	0.7308636
2	0x3f2988b0	0.66224194
3	0xbf8becea	-1.0931675
4	0xc01f029b	-2.484534
5	0xc095c16c	-4.679861
6	0x3f6c8c02	0.92401135
7	0xbddbf754	-0.107405335
8	0xc04a9c97	-3.1658075
9	0xc063af21	-3.557564
10	0x3d43a0a0	0.047760606
11	0xbe22b1c8	-0.1588813
12	0xc1170217	-9.43801
13	0xc108c901	-8.549073
14	0xc11b68ca	-9.713083
15	0xc10bb3b0	-8.731369

exp_avg_sq f4 [8, 1, 2]
0	0x41639557	14.22396
1	0x41ad903c	21.695427
2	0x435d060d	221.02364
3	0x42d2c7a0	105.38989
4	0x4494b4b1	1189.6466
5	0x44701a58	960.4116
6	0x4229ab54	42.417313
7	0x41c520d9	24.641039
8	0x43897c07	274.96896
9	0x438fba21	287.45413
10	0x42d145b7	104.63616
11	0x42eab38b	117.35067
12	0x44f0c414	1926.1274
13	0x44c702ef	1592.0917
14	0x44ecb2ef	1893.5917
15	0x44b9d34c	1486.603

exp_avg f4 [8]
0	0x3f049b85	0.51799804
1	0x405f893e	3.4927516
2	0x3ff01ab8	1.8758154
3	0xbe9dda00	-0.30830383
4	0xbf65ef10	-0.89817905
5	0x3f068fa4	0.5256293
6	0x3f5dea08	0.8668523
7	0x3ee4c240	0.4467945

exp_avg_sq f4 [8]
0	0x41cb2d89	25.397234
1	0x43f37076	486.8786
2	0x44fef51a	2039.6594
3	0x42830847	65.51617
4	0x444f7679	829.85114
5	0x42ec5eed	118.1854
6	0x4565bccb	3675.7996
7	0x4562d084	3629.0322

exp_avg f4 [32, 45]
0	0xbe837bfa	-0.25680524
1	0xbe82bcb1	-0.25534585
2	0xbe18aa2d	-0.14908667
3	0xbe555964	-0.20834881
4	0xbe254824	-0.161408
5	0x3d03e7fc	0.03220366
6	0x3d08787b	0.033318024
7	0x3d0f94a8	0.03505388
8	0x3d513f6f	0.051085886
9	0x3d2d4c0a	0.042308845
10	0x3d80433b	0.06262823
11	0x3d67ea10	0.056619704
12	0x3d5079b1	0.050897304
13	0x3c340b08	0.010988958
14	0x3deb6374	0.114935786
15	0xbc70c740	-0.014695942
16	0xbd652810	-0.05594641
17	0x3b287b24	0.0025708163
18	0x3d99d248	0.07510811
19	0x3b8bf64c	0.0042713042
20	0xbe3e687a	-0.18594542
21	0xbe18d2ca	-0.1492416
22	0xbdbf5bf2	-0.09343709
23	0xbe0a381c	-0.13497967
24	0xbdf6b38e	-0.12045966
25	0xbb40fa80	-0.0029446185
26	0xbcd89cc4	-0.02644194
27	0xbd246f69	-0.04014531
28	0x3cb8be71	0.022551747
29	0x3d7e3b2d	0.062068153
30	0x3d42a4ce	0.04752045
31	0x3d36b482	0.04460574
32	0x3d2b7d90	0.041867793
33	0x3d3ad30e	0.045611434
34	0x3d35244a	0.04422406
35	0x3d77f4d4	0.06053622
36	0x3d699628	0.057027966
37	0x3d5e82bc	0.054323897
38	0x3da4b66e	0.08042608
39	0x3d120db8	0.035657614
40	0xbed46c9d	-0.41489115
41	0xbdbdc328	-0.09265739
42	0xbea10500	-0.31449127
43	0xbde99404	-0.11405185
44	0x3d61643c	0.05502723
45	0x3cabab9a	0.02095585
46	0x3d03c12d	0.03216665
47	0x3d4b3e90	0.04962021
48	0x3f96cb3f	1.1780776
49	0x3fbcab00	1.4739685
50	0x3db783f4	0.08960715
51	0x3d588128	0.052857548
52	0xbd46b8e0	-0.048516154
53	0xbe947702	-0.28997046
54	0xbe8c6e7a	-0.27428037
55	0x3d8e4b40	0.069479465
56	0x3da47c1c	0.080314845
57	0x3df0bb78	0.11754507
58	0x3dbd57f0	0.09245288
59	0xbeb3d00e	-0.3511967
60	0x3e48a404	0.19593817
61	0x3b63fe00	0.0034788847
62	0xbf1d91b8	-0.61550474
63	0xbeef55fe	-0.46745294
64	0xbe576959	-0.2103628
65	0x3d5d688a	0.054054774
66	0x3d0c9ffc	0.03433226
67	0x3dfcb520	0.12339234
68	0x3f7910c1	0.9729119
69	0x3f9056af	1.1276454
70	0x3e1b9278	0.15192592
71	0x3d819358	0.06326932
72	0xbe35ec80	-0.17765999
73	0xbeb0c85e	-0.34527868
74	0xbe58ff42	-0.21191123
75	0x3d4b2b08	0.049601585
76	0x3d1eb1e8	0.038743883
77	0x3bff6c80	0.0077949166
78	0xbd5ec330	-0.054385364
79	0xbd903728	-0.0704177
80	0x3d7936d0	0.06084329
81	0x3d07fe10	0.033201277
82	0xbd476240	-0.048677683
83	0xbe29fd62	-0.16600564
84	0x3c378240	0.011200488
85	0x3f4b4cf1	0.7941428
86	0xbf8d82e8	-1.1055574
87	0xbe0bf8a8	-0.13669074
88	0x3f8ee790	1.1164417
89	0xbd8af214	-0.06784454
90	0xbe7d192b	-0.24716632
91	0xbe7bbead	-0.24584456
92	0xbe135055	-0.14386113
93	0xbe4dfa86	-0.20115098
94	0xbe1fb5c1	-0.15596677
95	0x3cfd8356	0.030946415
96	0x3d03327a	0.03203056
97	0x3d0a1975	0.033715684
98	0x3d4969d2	0.049173184
99	0x3d26c892	0.040718623
100	0x3d769ba8	0.06020704
101	0x3d5ee03c	0.054413065
102	0x3d483ac7	0.04888418
103	0x3c2d306c	0.010570627
104	0x3de27676	0.11057751
105	0xbc68c8d0	-0.014208034
106	0xbd5cb4ac	-0.05388324
107	0x3b21d910	0.002469603
108	0x3d940dea	0.072292164
109	0x3b87e7a4	0.0041474868
110	0xbe374623	-0.17897849
111	0xbe132da8	-0.14372885
112	0xbdb8c8c2	-0.090226665
113	0xbe058904	-0.13040549
114	0xbdee71a2	-0.116427675
115	0xbb3d1220	-0.0028849915
116	0xbcd0b29c	-0.025475793
117	0xbd1e4c6d	-0.038647104
118	0x3cb1e631	0.02171621
119	0x3d74b52b	0.059743088
120	0x3d3b0c88	0.045666248
121	0x3d2f9558	0.042867035
122	0x3d24ddd0	0.0402506
123	0x3d33b51a	0.043873884
124	0x3d2e3dac	0.042539284
125	0x3d6e4170	0.058167875
126	0x3d607fc0	0.054809332
127	0x3d56085e	0.052254073
128	0x3d9e7143	0.07736447
129	0x3d0c5aa8	0.034266144
130	0xbecc65ca	-0.3992141
131	0xbdb63668	-0.08897096
132	0xbe9ad56a	-0.30240947
133	0xbde0f2aa	-0.109837845
134	0x3d59140d	0.052997638
135	0x0219bfb3	1.129568e-37
136	0x0215bbd1	1.1000692e-37
137	0x021084e3	1.0617586e-37
138	0x021aa890	1.1362508e-37
139	0x02125089	1.0749498e-37
140	0x021773c6	1.1126953e-37
141	0x02134eb4	1.0822441e-37
142	0x02156626	1.0976106e-37
143	0x02165e0c	1.104725e-37
144	0x0211f2a1	1.0722549e-37
145	0x02110d0d	1.0656663e-37
146	0x02160409	1.1021418e-37
147	0x021e171b	1.1614638e-37
148	0x021bc6e9	1.1444686e-37
149	0x02138049	1.083667e-37
150	0x021fa5de	1.1729077e-37
151	0x021c6f41	1.1492998e-37
152	0x021ac13d	1.136959e-37
153	0x021b8b0d	1.1427507e-37
154	0x02181e6f	1.117593e-37
155	0x021b5883	1.1413003e-37
156	0x02191f36	1.1249622e-37
157	0x021d0128	1.153487e-37
158	0x02129c39	1.077122e-37
159	0x021e3b16	1.1624964e-37
160	0x02101c17	1.058751e-37
161	0x02144653	1.0893505e-37
162	0x02198ea7	1.1281604e-37
163	0x021f7fb5	1.1718125e-37
164	0x021f774a	1.1715709e-37
165	0x021c6f41	1.1492998e-37
166	0x021b0cd7	1.1391286e-37
167	0x0216afa6	1.1070668e-37
168	0x021bf35d	1.1457443e-37
169	0x021bd41a	1.1448472e-37
170	0x02157572	1.0980496e-37
171	0x021e1f12	1.1616923e-37
172	0x021981c5	1.1277907e-37
173	0x021832f6	1.1181821e-37
174	0x021cfd23	1.1533717e-37
175	0x02175916	1.1119294e-37
176	0x82154efe	-1.0969461e-37
177	0x821996ce	-1.1283944e-37
178	0x02177f50	1.1130265e-37
179	0x821e69ad	-1.1638334e-37
180	0xbe676d8d	-0.22600384
181	0xbe661b86	-0.22471437
182	0xbe065669	-0.131189
183	0xbe3bb5e7	-0.18331109
184	0xbe116209	-0.14197554
185	0x3ce86b2c	0.028371416
186	0x3cf0761c	0.029353194
187	0x3cfcf8fe	0.030880447
188	0x3d3835b1	0.04497308
189	0x3d188a22	0.03724111
190	0x3d61db66	0.055140875
191	0x3d4c3298	0.049852937
192	0x3d379a60	0.044824958
193	0x3c1ee3ec	0.0096978955
194	0x3dcf30b0	0.10116708
195	0xbc52fce0	-0.012877673
196	0xbd496922	-0.049172528
197	0x3b177b5c	0.00231143
198	0x3d8767c8	0.066115916
199	0x3b75f080	0.0037527382
200	0xbe2791de	-0.16364238
201	0xbe067e16	-0.13134035
202	0xbda86302	-0.08222009
203	0xbdf334da	-0.11875315
204	0xbdd8fc36	-0.105949804
205	0xbb278f40	-0.0025567561
206	0xbcbe50fc	-0.023231976
207	0xbd108ced	-0.035290647
208	0x3ca2ba0a	0.019864101
209	0x3d5fba02	0.05462075
210	0x3d2b68ae	0.041847877
211	0x3d20e724	0.039282933
212	0x3d170758	0.036872238
213	0x3d248242	0.040163286
214	0x3d1f7f24	0.03893961
215	0x3d5a5fca	0.053314008
216	0x3d4dbadc	0.05022703
217	0x3d43f4ce	0.047840886
218	0x3d910384	0.07080749
219	0x3d00a652	0.031408615
220	0xbebaec9d	-0.36508647
221	0xbda721d8	-0.08160752
222	0xbe8db80e	-0.27679485
223	0xbdcd8b5a	-0.10036345
224	0x3d4643d2	0.048404522
225	0xbe901a88	-0.28145242
226	0xbe8f476f	-0.27984187
227	0xbe2753bc	-0.16340536
228	0xbe69bf92	-0.22826985
229	0xbe35052f	-0.17677759
230	0x3d109d41	0.03530622
231	0x3d159faa	0.03652922
232	0x3d1d6dd4	0.03843482
233	0x3d654ba7	0.05598035
234	0x3d3dd61e	0.046346776
235	0x3d8c83b1	0.06861056
236	0x3d7e0fd2	0.062026806
237	0x3d646ece	0.055769734
238	0x3c455a48	0.0120454505
239	0x3e00ed10	0.12590432
240	0xbc837208	-0.016045585
241	0xbd7ac1e8	-0.06122008
242	0x3b3d7720	0.0028910115
243	0x3da891e9	0.08230955
244	0x3b990084	0.004669251
245	0xbe50b1c3	-0.2038031
246	0xbe2784e9	-0.16359295
247	0xbdd1cbd6	-0.10243957
248	0xbe1773a6	-0.1479021
249	0xbe0719b9	-0.13193406
250	0xbb513980	-0.0031925142
251	0xbcecfa88	-0.028928056
252	0xbd33edf1	-0.04392809
253	0x3ccaa386	0.024736177
254	0x3d8b4094	0.06799427
255	0x3d5530d8	0.052048534

exp_avg_sq f4 [32, 45]
0	0x4037e8b4	2.873578
1	0x402a29d2	2.6588025
2	0x40215c42	2.521256
3	0x40705f70	3.755825
4	0x4080e274	4.027643
5	0x3f13ce28	0.57736444
6	0x3f1597a1	0.5843449
7	0x3f18d925	0.59706336
8	0x3ec2ac86	0.3802225
9	0x3e8b6fdc	0.2723378
10	0x3f59b643	0.85043734
11	0x3f5a7c2d	0.8534573
12	0x3f82f41a	1.0230744
13	0x3f74173b	0.95347947
14	0x3f3b39e7	0.73135227
15	0x3fd451b4	1.6587434
16	0x40027409	2.0383322
17	0x3f9bd3e3	1.2174038
18	0x3e98f04c	0.29870832
19	0x3e6c0b01	0.23051073
20	0x40092514	2.142888
21	0x400198d4	2.024953
22	0x3ff70e91	1.930132
23	0x402b6b1e	2.678413
24	0x40388418	2.8830624
25	0x3f2bd0a3	0.6711523
26	0x3f3df52f	0.74202245
27	0x3f4226dd	0.7584055
28	0x3e6edf9e	0.2332749
29	0x3d975de3	0.07390954
30	0x3fa0ed5e	1.2572439
31	0x3fa18d7e	1.2621305
32	0x3fa0493f	1.2522353
33	0x3f9b1842	1.2116778
34	0x3f9876ef	1.1911296
35	0x402697c9	2.6030142
36	0x4027f16e	2.6241107
37	0x402204ea	2.53155
38	0x401b0127	2.4219453
39	0x4022cc88	2.5437336
40	0x3fc4597c	1.5339808
41	0x40288047	2.6328294
42	0x3ffdab31	1.9817868
43	0x3feac85a	1.8342392
44	0x3f9ec424	1.2403607
45	0x3d255619	0.040365312
46	0x3d997894	0.074937016
47	0x3f70dc65	0.94086295
48	0x40c30c87	6.095279
49	0x41763635	15.388234
50	0x40682c7d	3.6277153
51	0x407d5a7f	3.9586484
52	0x40901fca	4.5038805
53	0x40013744	2.0189981
54	0x3f1debe4	0.61688066
55	0x4052ebfd	3.2956536
56	0x4048ee7e	3.1395564
57	0x40a355fa	5.104245
58	0x408a78eb	4.3272605
59	0x40171c4d	2.3611023
60	0x415d1df1	13.81981
61	0x41970902	18.879398
62	0x4144e53f	12.305968
63	0x3ff60d06	1.9222724
64	0x3e71aca5	0.23601015
65	0x3d9c937f	0.0764532
66	0x3dfb604f	0.12274229
67	0x3f48d8b5	0.7845567
68	0x408e26a4	4.442217
69	0x412f49ed	10.955548
70	0x40ae5f9d	5.4491715
71	0x40d2bf07	6.585819
72	0x40f1b0ae	7.5528173
73	0x3ff84c09	1.9398204
74	0x3e17c363	0.14820628
75	0x40843bb2	4.132287
76	0x4087211b	4.222791
77	0x40831a12	4.0969324
78	0x405e6465	3.4748776
79	0x403f84bc	2.9924765
80	0x410668a6	8.400549
81	0x410d3813	8.82619
82	0x40e416f0	7.1278
83	0x40bdc38d	5.930121
84	0x40baba75	5.835261
85	0x40a2e945	5.0909753
86	0x410b501c	8.707058
87	0x41131c37	9.194388
88	0x41123863	9.138766
89	0x4080167a	4.0027437
90	0x40294c31	2.6452754
91	0x401ceb62	2.4518666
92	0x40119453	2.274678
93	0x4050e89a	3.2641969
94	0x40598c3b	3.399184
95	0x3f0813b6	0.53155077
96	0x3f09b059	0.5378471
97	0x3f0ca5d1	0.54940516
98	0x3eb32340	0.3498783
99	0x3e805086	0.25061435
100	0x3f489aa0	0.7836094
101	0x3f494095	0.7861417
102	0x3f7129da	0.94204485
103	0x3f609855	0.8773244
104	0x3f2c26bf	0.6724662
105	0x3fc34c75	1.5257708
106	0x3ff012b4	1.8755708
107	0x3f8f662c	1.1203055
108	0x3e8cbd9d	0.27488413
109	0x3e5924c1	0.21205427
110	0x3ffc8a68	1.9729738
111	0x3fef0023	1.8671917
112	0x3fe01eb0	1.7509365
113	0x4016c7d4	2.3559465
114	0x401ea426	2.4787688
115	0x3f1e0ca2	0.61738026
116	0x3f2eb318	0.68242025
117	0x3f32a72c	0.69786334
118	0x3e5bd24c	0.2146694
119	0x3d8b409e	0.06799434
120	0x3f94555c	1.158855
121	0x3f94e501	1.1632386
122	0x3f93a7ca	1.153558
123	0x3f8eba66	1.1150634
124	0x3f8c4829	1.0959522
125	0x40198e59	2.3993132
126	0x401abf94	2.417943
127	0x401518f6	2.3296485
128	0x400e9f2f	2.2284658
129	0x4015f492	2.3430524
130	0x3fb42abd	1.4075543
131	0x401aaaf4	2.4166842
132	0x3fe80937	1.8127812
133	0x3fd7f70d	1.6872269
134	0x3f91e94a	1.1399319
135	0x2ec1af18	8.807727e-11
136	0x3151bb8a	3.0520106e-09
137	0x335d5208	5.153018e-08
138	0x3488e077	2.5495294e-07
139	0x350cbc1e	5.242781e-07
140	0x3173beea	3.5469676e-09
141	0x3190ffad	4.2200186e-09
142	0x31d425b4	6.1742984e-09
143	0x30afce64	1.2791586e-09
144	0x2b56ac23	7.626696e-13
145	0x323beb33	1.0938311e-08
146	0x323dd351	1.1049296e-08
147	0x335bba07	5.1159102e-08
148	0x334d6094	4.781812e-08
149	0x318646c0	3.9079566e-09
150	0x33d995c1	1.013209e-07
151	0x342a1695	1.5840699e-07
152	0x33b939d0	8.62525e-08
153	0x30e750ef	1.6830465e-09
154	0x2dfa40db	2.8450511e-11
155	0x2f6e2908	2.1660551e-10
156	0x3139c8db	2.7035216e-09
157	0x3300700d	2.9904232e-08
158	0x3415e8e9	1.3961439e-07
159	0x348dc5e1	2.6407272e-07
160	0x2d3b86c4	1.0659643e-11
161	0x2cbb4e56	5.3235567e-12
162	0x30a7c18c	1.2205859e-09
163	0x31ba53bf	5.4228333e-09
164	0x2d7446d3	1.388552e-11
165	0x328ddde8	1.6515472e-08
166	0x3292014f	1.6997232e-08
167	0x33858c88	6.2188576e-08
168	0x33a5f129	7.727278e-08
169	0x32dcbb98	2.5696679e-08
170	0x32e8ed45	2.7116252e-08
171	0x32f0f0aa	2.8049119e-08
172	0x338b54bf	6.488107e-08
173	0x34257693	1.540996e-07
174	0x344f56fd	1.9310023e-07
175	0x3550ea41	7.782692e-07
176	0x349f1d8f	2.9637565e-07
177	0x34520474	1.9559394e-07
178	0x349dd505	2.939852e-07
179	0x33ef6e42	1.11493605e-07
180	0x400e660e	2.224979
181	0x4003c182	2.0586858
182	0x3ff9e216	1.9522121
183	0x403a1e13	2.9080856
184	0x4047948b	3.1184413
185	0x3ee4dee6	0.44701308
186	0x3ee7a36c	0.45241868
187	0x3eecae0d	0.4622654
188	0x3e96ba3f	0.2943897
189	0x3e57ec91	0.21086337
190	0x3f288e66	0.6584228
191	0x3f2927a9	0.6607614
192	0x3f4ac50f	0.7920694
193	0x3f3cfae4	0.7382033
194	0x3f10f58c	0.56624675
195	0x3fa461af	1.2842311
196	0x3fca0058	1.5781355
197	0x3f714f4c	0.9426162
198	0x3e6cd8a5	0.23129518
199	0x3e36c2ec	0.17847794
200	0x3fd4616d	1.6592232
201	0x3fc8b119	1.5679046
202	0x3fbf4bce	1.4945009
203	0x4004ba35	2.0738652
204	0x400edcfc	2.2322378
205	0x3f05058d	0.51961595
206	0x3f13116a	0.57448447
207	0x3f16521e	0.5871905
208	0x3e38f677	0.18062769
209	0x3d6a67ed	0.057228018
210	0x3f792ff9	0.97338825
211	0x3f7a27d0	0.97717
212	0x3f78321f	0.9695148
213	0x3f702873	0.9381172
214	0x3f6c15f0	0.92220974
215	0x4000faf2	2.0153165
216	0x400206a4	2.0316553
217	0x3ffae15d	1.9600025
218	0x3ff004fb	1.875152
219	0x3ffc163b	1.9694284
220	0x3f9807f2	1.1877425
221	0x4002749e	2.0383677
222	0x3fc46787	1.5344094
223	0x3fb5c502	1.4200747
224	0x3f75d93b	0.9603459
225	0x405cde73	3.4510772
226	0x404c5cb9	3.1931593
227	0x4041cb46	3.0280318
228	0x40905819	4.510754
229	0x409aca92	4.837228
230	0x3f3182e2	0.69340336
231	0x3f33a85a	0.7017876
232	0x3f37913d	0.7170599
233	0x3ee9cf0e	0.45665783
234	0x3ea77741	0.3270817
235	0x3f82bc1d	1.0213658
236	0x3f833328	1.0249987
237	0x3f9d45c3	1.2286915
238	0x3f9293ea	1.145139
239	0x3f60dba0	0.8783512
240	0x3ffefcda	1.9920914
241	0x401cab71	2.447964
242	0x3fbb2659	1.4621078
243	0x3eb7b042	0.35876662
244	0x3e8dc004	0.2768556
245	0x4024b57a	2.5735765
246	0x401ba4f4	2.431943
247	0x40145bbd	2.3180993
248	0x404de07c	3.2168264
249	0x405d9b57	3.4626062
250	0x3f4e57ef	0.80602926
251	0x3f6421d4	0.8911412
252	0x3f692bcc	0.91082454
253	0x3e8f733a	0.28017598
254	0x3db5cd08	0.08876997
255	0x3fc14616	1.5099514

exp_avg f4 [32]
0	0x3d14bade	0.036311023
1	0x3d3c7158	0.04600653
2	0x3d0ed1a4	0.034867898
3	0x02189dbf	1.1212467e-37
4	0x3d030304	0.031985298
5	0x3d22d53e	0.039754145
6	0x3ce62770	0.028094977
7	0x3d1ec550	0.03876239
8	0x3d035082	0.0320592
9	0x0211aef3	1.0703126e-37
10	0x021e2218	1.1617791e-37
11	0x3cff5ed8	0.031173155
12	0x3d024aea	0.031809725
13	0x021c7c0f	1.1496673e-37
14	0x021e353b	1.1623283e-37
15	0x02188e00	1.1207948e-37
16	0x3d0ae978	0.03391406
17	0x3d0b106a	0.0339512
18	0x3ea1648e	0.3152203
19	0x3d0e0c26	0.034679554
20	0xbed1babb	-0.40962777
21	0x3d19f884	0.03759052
22	0x3ce624bc	0.028093688
23	0x3d1c76f2	0.038199373
24	0x3d04cf6c	0.032424375
25	0x3cf9741c	0.030450873
26	0x3d1bd5b4	0.0380456
27	0x3cfdc5fc	0.030978195
28	0x021cb02c	1.1511629e-37
29	0x3d2834cc	0.041065976
30	0x3cd8ea3c	0.02647888
31	0x3d0fe5f2	0.035131402

exp_avg_sq f4 [32]
0	0x3ff0f0e1	1.882351
1	0x40a1aece	5.0525885
2	0x3fde2133	1.7353882
3	0x346fc3f4	2.2329897e-07
4	0x3fba8aff	1.4573668
5	0x4010afbd	2.2607262
6	0x3f8f1898	1.117938
7	0x4009fcfe	2.1560664
8	0x3fbb8b80	1.4651947
9	0x33edae9a	1.1067932e-07
10	0x35cf7193	1.5455756e-06
11	0x3fb0cb9b	1.3812135
12	0x3fb824b7	1.4386204
13	0x32b1969c	2.0674001e-08
14	0x3459b7cc	2.0276565e-07
15	0x3538b004	6.880148e-07
16	0x3fd29e72	1.6454604
17	0x3fd21fdf	1.6415976
18	0x411d7c96	9.8429165
19	0x3fdbedf0	1.7181988
20	0x4111b94a	9.107737
21	0x40018988	2.0240192
22	0x3f8fb31f	1.1226538
23	0x40054f4f	2.0829656
24	0x3fbf444a	1.4942715
25	0x3fa924d0	1.3214359
26	0x40045a5f	2.0680158
27	0x3faf5f42	1.3700945
28	0x33bd38c0	8.811321e-08
29	0x401a9257	2.4151819
30	0x3f7ed23f	0.9953956
31	0x3fe239ce	1.767389

exp_avg f4 [1, 32]
0	0xbf12feee	-0.5742024
1	0x3f952328	1.1651354
2	0x3ee25f2c	0.44213235
3	0x82131f48	-1.0808832e-37
4	0xbe871140	-0.26380348
5	0xbe54def0	-0.20788169
6	0x3dae2030	0.08502233
7	0xbec24f84	-0.3795129
8	0xbf1a8024	-0.6035178
9	0x8211c491	-1.0709329e-37
10	0x82188457	-1.1205176e-37
11	0xbdb23170	-0.08700836
12	0xbe76a2f8	-0.24085605
13	0x821e4891	-1.1628832e-37
14	0x82103fde	-1.0597778e-37
15	0x821c98e2	-1.1504945e-37
16	0xbe5d20b8	-0.21594512
17	0xbe98af94	-0.29821455
18	0x3f5cb160	0.8620815
19	0xbed3c5f8	-0.41361976
20	0xbfd355c3	-1.6510547
21	0xbc1bbd00	-0.00950551
22	0xbeb8bce8	-0.36081624
23	0xbe764888	-0.24051106
24	0xbdeb2a90	-0.114827275
25	0xbe7189e8	-0.23587763
26	0xbdd8fac0	-0.10594702
27	0xbed6f874	-0.4198643
28	0x821f5cca	-1.1708104e-37
29	0x3e930284	0.28712857
30	0xbe6fa6a8	-0.23403418
31	0xbe8dbbc8	-0.27682328

exp_avg_sq f4 [1, 32]
0	0x43da2ce4	436.3507
1	0x408c1ebe	4.3787527
2	0x43761221	246.07082
3	0x35cb901d	1.5166621e-06
4	0x43fef5ae	509.91937
5	0x43c868e9	400.8196
6	0x4398669b	304.8016
7	0x43d2bfda	421.49884
8	0x440b760d	557.84454
9	0x35a72dc3	1.2455788e-06
10	0x369700c4	4.50024e-06
11	0x43f4980d	489.1879
12	0x43fc44e0	504.5381
13	0x33718856	5.6236182e-08
14	0x35ad5554	1.2914338e-06
15	0x372c8282	1.0282385e-05
16	0x43e8806f	465.0034
17	0x43dfa4ab	447.28647
18	0x4140babc	12.045589
19	0x43e155a0	450.66895
20	0x4337296d	183.16182
21	0x43e23d42	452.47858
22	0x441b04f1	620.0772
23	0x43c37946	390.94745
24	0x43eb5438	470.65796
25	0x43f77e08	494.98462
26	0x43cfcd3e	415.60345
27	0x43efb81f	479.43845
28	0x3439b8b8	1.7296668e-07
29	0x43c3e186	391.7619
30	0x43f5db0b	491.71127
31	0x43cfd214	415.64124
